bilstm/cws.model (torch_old, 85665 bytes, 14 tensors)

transitions f4 [6, 6]
00000000: 4f46 c9c0 761b c9c0 feaf cb3f 175b 0b40
00000010: bc11 0040 0040 1cc6 5fd5 833f 1084 a83f
00000020: fe42 ccc0 9d35 d1c0 7acc 02c1 0040 1cc6
00000030: f922 813f 5d48 e63e dbc6 00c1 9760 eac0
00000040: ab7a e3c0 0040 1cc6 dc83 13c1 c1e8 01c1
00000050: 67c8 d8bb eac8 8b3f 1043 dd3e 0040 1cc6
00000060: 0040 1cc6 0040 1cc6 0040 1cc6 0040 1cc6
00000070: 0040 1cc6 0040 1cc6 2eb6 aec0 1dc7 97c0
00000080: 0adc 3fc0 0011 5840 7564 93be 0040 1cc6
-6.2898326 -6.284602 1.5913084 2.1774347 2.0010824 -10000.0 1.0299491 1.3165302
-6.3831778 -6.5377946 -8.174921 -10000.0 1.0088798 0.44977084 -8.048549 -7.3242908
-7.108724 -10000.0 -9.219692 -8.119325 -0.0066156867 1.0920689 0.43215227 -10000.0
-10000.0 -10000.0 -10000.0 -10000.0 -10000.0 -10000.0 -5.4597387 -4.743056
-2.997805 3.3760376 -0.2878758 -10000.0

weight f4 [2760, 5]
00000000: 7d00 17bf 3790 d7be 5424 f2bf 2088 45c0
00000010: de1b 443f 7b83 8d3f 8622 9f3e 34bd 40c0
00000020: b29b 14c0 4154 8e3f 30d5 193f 1e84 e73f
00000030: 3641 d93f eddc 8240 204d ba3f 71a1 e33f
00000040: 1e96 0cbf d2da 26c0 2f48 033f 5a57 a73d
00000050: 1010 c43f 4f67 6bbe 8180 e4be cc2f 7f3f
00000060: c84a bb3f 0634 2bc0 1494 72c0 2faf 47c0
00000070: f8cb c6be 2bd3 c5bf a5f8 9cbf 1faa 88be
00000080: 7d23 573f 4e42 bbbf 67d0 993f 55c3 2cbf
00000090: ad0f d53d 3e4c 4d3f b428 1a3e 8916 c7be
000000a0: 84ba c1bf b093 27bf e8da 9bbf a611 473b
000000b0: 3e72 0c40 27f9 70bf e98e ac3f f7dc a0bf
000000c0: e46d f6bf dc2c 4d3f bfab 7e3e b3ab c6be
000000d0: 6b32 4f3f bb79 833e 25d9 7d3f a8bf e33f
000000e0: a29e b93d 195a 853f f105 b6be dd6f 0abf
000000f0: bf7b b63f 2037 79bf 7dd5 5bc0 7aea 2fbf
00000100: 42d0 b3bd ee69 8cbf 0210 20bf adb6 68bf
00000110: a6e0 6fbd c5a9 f53d 351e a23f f787 38bf
00000120: 11f0 02c0 50cd 71be 0cde 0abf 82ac 61c0
00000130: e42f 08c0 9fb8 1bc0 f08d 2abf ab26 10c0
00000140: 9c3c 45be 136c ec3e de69 c4be d4cd 853f
00000150: 45da 81bf 5935 ae3d f15d c33e 0090 e23e
00000160: 9cc1 8ebe 6cc7 9d3e 38ff 6cc0 35fe c5bf
00000170: 9cae 3dc0 b31a 45be 27cc 9abf b4d4 0740
00000180: 3e89 203f 05f6 983f 59f1 123f 2e7f 0fbf
00000190: e399 9e3f fe26 6bbf a84d 82bf 4976 683f
000001a0: 6341 ac3f 054f 113c 9345 3cbf a66d 69bf
000001b0: 5aa2 d1bf 5f22 96bf 678f fcbf 86ef e3bf
000001c0: 40df ff3e 752a d2be fe0f bbbe f0dc 2e3f
000001d0: 9e71 eabe 0bed 07bf 169b 13bf 9613 953b
000001e0: a971 3840 a346 d3bf a9ef 053f 5738 1d3d
000001f0: c8cb 68be 808e 0440 f478 aebe a28d bbbd
00000200: d3d5 8a3f a225 a4bf aa67 5d3f 5f4c 6e3f
00000210: bc48 043f 45f2 53bf c9a8 8e3f 3b4b 20bb
00000220: a3fc 13bf 83f2 8abf 80e7 af3d aaa0 a13f
00000230: 7c1f cd3f 7edd b8be 518b da3f e083 f2bf
00000240: 03e1 d4be 4726 0ec0 d900 94be 34ba d6be
00000250: 5402 4e3f d0cf 15bf 419e f73e 590e b9bf
00000260: 3354 25bf 0143 d5be eead c8bd d3fc b03e
00000270: 2774 443f 1fc1 a33f e424 acbf 14df 3e40
00000280: 14e1 963f f616 c13e c9c5 12bf 83e4 3cbe
00000290: 1aea 91be 12ce a3bf 9c20 1f3f 78cb 5cbe
000002a0: 62a8 77bf 2204 4b3f 9502 eb3f e4a1 aabf
000002b0: e2a5 2f3e dc49 5fbf f618 f23e c244 61bf
000002c0: 6bbd c03e 3db3 013f 4fb9 a33f 61f1 fc3f
000002d0: 198f 89bf b075 1f3e 4615 3fbf 5ed3 70bf
000002e0: f0ea 8d3f 26ba d9be abb6 abbe 7e84 203f
000002f0: f354 8fbf e420 2a3f 3265 f1be 0d08 493f
00000300: 3579 12be 83ee 8d3f a604 0f40 0ce3 bbbe
00000310: a37e 193f dd7b e4bf 60c9 2dc0 e200 31bf
00000320: d85c 44be 090c a83f cc3d c6be e91f 663f
00000330: 5736 96bf 71c6 4b3f adec 2c3e 6cbf 8c3d
00000340: 9ba0 a0be ccea b83e 1959 543f 6feb ff3f
00000350: 69e4 073f b60e 703f 73e8 c93f 7090 0740
00000360: 2204 233e 83fd 0340 4b95 0040 8621 c3bf
00000370: dc6f d3bd d9cb f1be 151a 1640 a248 1740
00000380: 60bf 1240 de9a cc3e 4150 2f3f ba5e 01bf
00000390: aaa1 f23e e574 923f 886f 093f a131 e23e
000003a0: 55b3 d33e ecba c33e 0abe a53f 1648 aebf
000003b0: 66e5 c63f 99ea 13c0 5a8b c7bf 9cc1 713f
000003c0: bab3 e63e c2dd 263e 5c5f ad3f 0b77 57bf
000003d0: b19a ba3d d9ae 6fbc 12e5 eabe 09ba 0bbf
000003e0: 2702 30bf 1d4e 863e 38ff eabd 3bda 0f3f
000003f0: 637c f83e cda2 4dbf 7466 433f 8af0 afbf
-0.5898512 -0.42102215 -1.8917336 -3.0864334 0.7660502 1.105575 0.31081027 -3.011548
-2.322003 1.1119462 0.60090923 1.8087194 1.6973026 4.0894685 1.4554787 1.7783643
-0.5491656 -2.6071057 0.5128202 0.08170958 1.5317402 -0.22988628 -0.4462929 0.9968231
1.4632196 -2.6750503 -3.790288 -3.1200674 -0.3882749 -1.5455068 -1.226338 -0.26692292
0.84038526 -1.462961 1.2016724 -0.67485553 0.104033805 0.8019446 0.1505459 -0.3888438
-1.5135045 -0.6545973 -1.217618 0.003037551 2.1944728 -0.94130176 1.3481113 -1.2567433
-1.9252286 0.80146575 0.24870203 -0.3880287 0.80936307 0.2567881 0.9915946 1.7792864
0.0906346 1.0418121 -0.35551408 -0.5407694 1.4256514 -0.9734974 -3.4349053 -0.6871716
-0.087799564 -1.0969827 -0.62524426 -0.9090374 -0.05856385 0.119952716 1.2665468 -0.72082466
-2.0459025 -0.23613477 -0.54245067 -3.526154 -2.127923 -2.4331434 -0.6662283 -2.25236
-0.19261402 0.46176204 -0.3836202 1.0453439 -1.0144736 0.08506269 0.3815761 0.44250488
-0.27882087 0.3081621 -3.7030773 -1.5468203 -2.9637823 -0.19248466 -1.2093552 2.1223574
0.62709415 1.1950079 0.5739952 -0.56053436 1.2390712 -0.9185637 -1.0179949 0.9080549
1.3457454 0.008868937 -0.7354366 -0.91182935 -1.6377671 -1.1729239 -1.9731263 -1.7807472
0.49975014 -0.41048017 -0.3653564 0.68305874 -0.45789808 -0.53096074 -0.5765852 0.004549454
2.8819373 -1.6505932 0.5231882 0.038383808 -0.22733986 2.0711975 -0.34076655 -0.09157874
1.0846504 -1.2823985 0.86486304 0.93085283 0.51673484 -0.8279155 1.1145259 -0.0024458903
-0.5780737 -1.0855259 0.08589077 1.2627156 1.6025233 -0.36106485 1.7073766 -1.8946495
-0.4157792 -2.2210863 -0.28906897 -0.41938937 0.804723 -0.5852022 0.48362926 -1.4457504
-0.645816 -0.41652682 -0.097987995 0.3456789 0.76739734 1.2793311 -1.3448758 2.9823656
1.1787438 0.3771283 -0.57333046 -0.18446545 -0.28498918 -1.2797263 0.6215913 -0.21561992
-0.96741307 0.7930318 1.8360163 -1.3330655 0.17153123 -0.87222075 0.4728467 -0.8799554
0.37644514 0.5066412 1.2790927 1.9761163 -1.0746795 0.15572238 -0.74641836 -0.9407252
1.1087322 -0.42524832 -0.33537802 0.6270217 -1.11978 0.6645644 -0.47147518 0.7852791
-0.1430405 1.1088413 2.2346587 -0.3669666 0.5995886 -1.78503 -2.715416 -0.6914197
-0.19176042 1.3128673 -0.38719022 0.8989244 -1.1735333 0.7959967 0.1688716 0.06872448
-0.31372532 0.36116636 0.8294845 1.9993724 0.530829 0.9377245 1.5774063 2.1181908
0.15919545 2.0623481 2.0091121 -1.5244606 -0.1032407 -0.47225836 2.345342 2.3638082
2.2929306 0.39961904 0.6848183 -0.50535166 0.47388965 1.1441923 0.5368581 0.4417849
0.41347757 0.38228548 1.294862 -1.3615749 1.5538757 -2.3111937 -1.5589402 0.9443605
0.45058995 0.16295531 1.3544726 -0.8416602 0.09111536 -0.014629089 -0.45877892 -0.5458074
-0.68753284 0.2623147 -0.1147446 0.5619237 0.485324 -0.8032654 0.76328206 -1.3745282

weight_ih_l0 f4 [8, 5]
00000000: 8446 1d3f bad4 14bd 2a2d 79bf 7edd c2be
00000010: 661c 51bf adff dfbe 04bc b3bf 54b7 7ebf
00000020: dafe 11bf aafd cd3e 38ff 233e e2fd ad3e
00000030: b4b5 a63d 93d0 5c3e 2b65 133e a075 e93e
00000040: 386e b6bd cfaf 40bf 4c23 34bf 4cd2 b2bd
00000050: 1112 97be 5db9 ddbe 5cfb 4c3f 68dc 733f
00000060: 8be3 b33f e668 80be c8ee 9e3e 2721 8b3f
00000070: 65d2 e5be 2a89 bbbe c605 913d 087b 63bf
00000080: b935 993e b77e 67be 62f4 a33f 3f19 6cbf
00000090: b155 4dbf fa48 03bf e45e a63f 1a67 c83b
0.61435723 -0.036335684 -0.9733454 -0.3805961 -0.8168396 -0.43749753 -1.4041753 -0.99498487
-0.570295 0.40232593 0.16015327 0.3398276 0.08140126 0.2156394 0.14394061 0.45597553
-0.08907741 -0.7526826 -0.7036636 -0.08731517 -0.2950597 -0.43305483 0.80071044 0.9525819
1.4053816 -0.2508003 0.3104155 1.0869492 -0.4488708 -0.36628085 0.07081179 -0.88859606
0.299238 -0.22606932 1.2808955 -0.9222602 -0.8020888 -0.5128323 1.2997708 0.0061158063

weight_hh_l0 f4 [8, 2]
00000000: c86a 763d 932b 21be f1cb 193e 7cd7 c73a
00000010: a09e 7ebd fd34 d53e ae20 0e3d 42e6 d43e
00000020: fedc 73be 36ff 2cbf 882c 943d d0ef 19bf
00000030: f7d7 08bf e281 543e 0f9e 6d3e 83d7 463f
0.06016043 -0.15739278 0.15019204 0.0015246714 -0.062162995 0.4164199 0.034699135 0.41581923
-0.2381477 -0.6757692 0.07235056 -0.6013155 -0.53454536 0.20752671 0.23204826 0.77672595

bias_ih_l0 f4 [8]
00000000: 3a61 67bd 47d7 883e 4ace 55bf 27dd bcbf
00000010: 64d3 203f 6579 703e 5d32 783f 8d7a 92bd
-0.056489207 0.26726744 -0.835179 -1.475499 0.62822556 0.23483808 0.9695185 -0.07152281

bias_hh_l0 f4 [8]
00000000: f6c7 a33f 70a1 8dbd ae7b 41bd d5b5 99be
00000010: 244c be3e 3d7c 54bf 23b0 403f d5b9 7fbd
1.2795398 -0.069155574 -0.04723709 -0.3002154 0.37167466 -0.8300207 0.75268763 -0.062433083

weight_ih_l0_reverse f4 [8, 5]
00000000: 9c4a b2be 77b2 60bf edf4 87be 0bc4 5fbe
00000010: 13f1 c33e a664 1fbf 05de 6a3e 0b66 403f
00000020: b383 fdbc 3d63 15bf 5557 b33e 3cc7 3ebe
00000030: e85f 2abe 9d4b 863d 668b e03e 58de 363e
00000040: 7a5d fa3e f61f 033f 7a44 66bf 0876 6dbd
00000050: 00bc 2f3f 4b65 c93e 39da 7cbe 8bcb a4be
00000060: b7b0 523f 03da edbd 5a2e 4cbe 0dbb a6be
00000070: ccea 33bf a3f6 4c3e 683b ccbe 30d8 f9be
00000080: 68cc 94bf 7575 77bf 1617 c1bf c275 4f3f
00000090: 61bf a13e 416d 3a3e 4fa3 d23e ecff d7be
-0.34822547 -0.87772316 -0.2655405 -0.21852128 0.38269863 -0.6226295 0.22936256 0.75155705
-0.030946588 -0.5835455 0.35027567 -0.1863069 -0.16638148 0.06557391 0.43856353 0.17858255
0.48899442 0.51220644 -0.89948237 -0.05797389 0.6864624 0.39335093 -0.2469262 -0.3218654
0.82300895 -0.11613848 -0.19939557 -0.32564583 -0.70280147 0.2001596 -0.39889073 -0.4879775
-1.162488 -0.966636 -1.508517 0.8103906 0.31591323 0.1820574 0.4114022 -0.4218744

weight_hh_l0_reverse f4 [8, 2]
00000000: 0b77 793f 9dc1 bebe c328 4cbf 0f27 933e
00000010: 5d3a 1d3f ffbc b7be 9afc fbbe f703 9bbf
00000020: 269a d2be 4a09 3c3e 1c7a 4cbf e77b b3be
00000030: 9a3f da3e 3226 823e 971a efbf c474 d2bf
0.9744727 -0.3725709 -0.797497 0.28740737 0.6141718 -0.3588638 -0.49216157 -1.2110585
-0.4113323 0.18362918 -0.79873824 -0.35055467 0.4262665 0.25419766 -1.867999 -1.6441884

bias_ih_l0_reverse f4 [8]
00000000: 09a1 a1bd 03b3 d63f 6583 adbf 9041 8cbe
00000010: 15d5 3d3f 3122 843f 3149 413f a3fb 883e
-0.07892043 1.677338 -1.3555723 -0.2739377 0.7415326 1.0322934 0.75502306 0.26754484

bias_hh_l0_reverse f4 [8]
00000000: 9983 c53e ebb4 293f df13 dcbf b106 d43e
00000010: add7 bebc 489c 2f3e 4d61 8b3e fb39 3e3f
0.38576964 0.66291684 -1.7193564 0.41411355 -0.023296202 0.1714946 0.27222672 0.7430722

weight f4 [6, 4]
00000000: 5ed6 ffbe eac8 b33e 937b f03f c9e5 36bf
00000010: cf67 25bf a3a6 9c3f 0249 783f 8076 87bf
00000020: 023b c03f 5953 aa3f 02a7 58be ad3e c93f
00000030: 002c 98be fa12 c4bf 97da cfbf a900 783e
00000040: a82c 69be 80cb 72bd 60a8 4e3d 5206 f0be
00000050: 88ed fc3d e6a7 bf3e 4848 c0be 3e57 cebe
-0.49968237 0.35114223 1.8787712 -0.71444374 -0.64611524 1.2238353 0.969864 -1.0583038
1.5018008 1.3306686 -0.21157458 1.5722252 -0.2972107 -1.5318291 -1.6238583 0.24219002
-0.22770941 -0.059276104 0.050453544 -0.46879822 0.12349993 0.37432784 -0.37555146 -0.40300936

bias f4 [6]
00000000: 57f6 91bd c6f2 e8bd f8db 8b3e 3a81 40bd
00000010: 803a c1be c80c f13d
-0.07127064 -0.1137443 0.2731626 -0.04699824 -0.37739944 0.11770016

hidden f4 [2, 1, 2]
00000000: 14ea b5be 847c 4cbf 02f8 443d 01a1 5c3e
-0.3553015 -0.79877496 0.04808808 0.21545793

hidden f4 [2, 1, 2]
00000000: 0237 50bf 081e 8dbf 36df 243f aeb9 223f
-0.81333935 -1.102479 0.6440309 0.63564575
